model/keypoint_classifier/keypoint_classifier.tflite (tflite, 7512 bytes, 6 tensors)

sequential/dense/BiasAdd/ReadVariableOp f4 [20]
00000000: 5796 65bf 6849 a33e ee75 85bd 587f 31bf
00000010: 5662 80bd 39a2 32be b528 513f 557a debe
00000020: fc62 b1be 5128 aabe 4ea1 02c0 bd20 a2bd
00000030: 7d14 343f 8bf0 a5bf 5e6d c0bd b6c2 933f
00000040: 2bdb 7abe 7fc8 8ebe ee28 b6be 774e cdbf
-0.89682525 0.31891942 -0.06516634 -0.69334936 -0.06268756 -0.17444696 0.8170274 -0.43452707
-0.34645832 -0.33233884 -2.0410953 -0.079164006 0.7034376 -1.2964033 -0.0939586 1.1543796
-0.24497668 -0.2788734 -0.35578102 -1.603957

sequential/dense_2/BiasAdd/ReadVariableOp f4 [26]
00000000: 5b71 28bf 3935 6ebf af20 9d3e a695 403f
00000010: 72da ab3e b8f4 45bf fab5 023f 3b46 fd3e
00000020: 26c5 c2bf b0f2 1dbf 0ab1 173f a25a 0cbe
00000030: f58b c23f 8072 413f 6853 babe ce57 aabd
00000040: 6713 0bbe ff7c a13f 217f 8a3e 861c 193e
00000050: 72aa 91be 9fa9 08be 7ed5 31bf 09f3 d2bd
00000060: 90de 94bf 6782 e8be
-0.65797967 -0.9304996 0.30688998 0.75228345 0.33565098 -0.77326536 0.51058924 0.49467644
-1.5216415 -0.61698437 0.59254515 -0.13706449 1.5198961 0.7556534 -0.3639176 -0.08317529
-0.1358162 1.2616271 0.27050117 0.14952287 -0.28450352 -0.13345955 -0.6946639 -0.103002615
-1.1630421 -0.4541199

sequential/dense_1/BiasAdd/ReadVariableOp f4 [10]
00000000: bced 62bd 0466 bbbf 2c4b 28bf 206f f83d
00000010: 071a b73e 0751 4e3f 7309 c23f 3e6b 1d3f
00000020: e560 343f ca20 de3f
-0.055402502 -1.4640508 -0.65739703 0.121305704 0.35762045 0.8059239 1.5159134 0.61491764
0.7046035 1.7353756

sequential/dense/MatMul f4 [20, 42]
00000000: fc5d 99bd 8a84 cabd f286 17bf 206d 9e3d
00000010: a607 d8be 65d0 933d af7c 6dbf b75a 7f3a
00000020: 3d46 90bf b828 efbb 7065 d6be a171 15bd
00000030: 60f5 42be e83d 85bc fcda aabd 6a74 c83c
00000040: f704 28bd e81d 503d 3d7c f5be 6caa 1bbd
00000050: c0f3 f03d 97fe 293d c23c 5e3c c2a3 fc3d
00000060: 879b adbd 9b88 ee3d 4968 03be 6815 b5bd
00000070: 9b9e e23e 261d 8a3c 1831 0f3e 92ba ee3d
00000080: 15fd b9bd fc23 9a3d 090a 9c3e ded6 12be
00000090: 0129 843f dedf b5bd 70a5 8f3f bd56 c4bd
000000a0: c599 9d3f 4779 e8bd 92d9 24be 8856 5bbe
000000b0: e167 88bc 899e d23e 8ce4 5ebe 650d 8f3f
000000c0: c113 e73e ea45 863f 3088 a73f cff0 d33e
000000d0: 7ca1 e9be 621b 063f 94ec c93e 1905 c43e
000000e0: 1cce 4b3f da97 f93e 743c 983f c9e9 d13e
000000f0: 18b8 09bf 21b9 b13e dfc8 093e 61e5 4a3e
00000100: 4adf 953f 6eb2 0b3d 4293 ef3f 7160 18be
00000110: 5f0b 5dbe e945 a93e 3a1b 75be 716f 003e
00000120: 4063 6b3e 85fa 02be 9b49 413f db59 3bbe
00000130: 5e4e 273e 11df 923e d39e 96be bd43 e13c
00000140: 20af 7abd a4fd 6dbd 8e6d cb3e 35e9 89be
00000150: f80a a33d 8075 11be c478 40be 44a0 7a3f
00000160: b36c 33be 858f 6c3f 99c5 1dbe e657 6c3e
00000170: 9c83 4ebd 8bf7 fe3e da54 13bf c9e4 673d
00000180: 8f35 77bd f45b 7d3e 6ae9 023e f000 23bc
00000190: 785b 823e 9c0d 0bbd 6150 8abe 5dc0 83be
000001a0: 4051 1ebe 0604 9f3f 16f4 b4bb 4fb6 6b3f
000001b0: b81f 183e 3fd1 f43e 0752 d9bd 26ce 22bf
000001c0: f78c 23be 26ee 973f fc8f 1c3d c319 873f
000001d0: e611 633e 32ff 083f 5daf 133e 1fb1 f9be
000001e0: e5e8 90bd 20fc 343f e611 5c3d 6e4a 2c3f
000001f0: bdd2 a23c db2f b73e e899 453e e4f6 c63d
00000200: 7b0d b33e 1034 753f d150 503d d234 f43d
00000210: 2815 05bf a20b 213d 3922 49bf 6dcf cd3d
00000220: cae2 0a3e 61d0 8cbd eae2 4c3e 109c e33c
00000230: 9b1e 9f3e 816b b73d 32ad b03e 4866 043e
00000240: 69c2 4dbd 26d1 5cbd 57e4 ae3d bb46 a93b
00000250: 2ab3 9a3e a9da 2c3d 7cba bf3e 4a65 b53d
00000260: fe3c 48bf 0a93 63bd ec16 95be 20f1 c83b
00000270: fd76 04be 03da 803d 8ab3 a4bd a9be 583e
00000280: 8156 31bf d756 10be cb16 60bd ad68 b2be
00000290: ada9 eb3e 2dc4 84bf cfb5 4b3f c24a e7bf
000002a0: c06a 0d3e 9cc3 d93d 4f09 953e 1039 a03f
000002b0: abc9 1b3e cebe 193f bb00 ad3c d150 ce3e
000002c0: b1b2 b7bd f3ad c73e 2335 293e ca1f 2a3e
000002d0: 5f69 da3d 7eb8 373e 0910 2bbd e3c1 243e
000002e0: 3fcd 98bd b5f2 1f3e 3073 1f3e d33e 413e
000002f0: 3831 da3d 4160 ed3d 1518 10bd 11c3 1dbd
00000300: b879 08be 2621 0ebe 3c3d 043d f84a 403e
00000310: 58e2 493d 5174 c23d 4767 3dbd 5d17 7dbe
00000320: 95a4 29be 3c2e a1bf b773 8dbd 1ac1 773e
00000330: cd61 b13d 2d68 093e 5f1e 073e dee2 05be
00000340: 5891 813d 8e99 c0bf fcfd cf3d f85e 0c3d
00000350: 6a3d 363e 6f10 843f 9030 d43d 1134 053f
00000360: 3430 e43d 4b03 b93e 05d6 c13c 15d4 9b3e
00000370: b669 9d3d d1c6 3f3e ca8d 18bd c536 2e3e
00000380: 581c fbbd 8b9b 6f3e c8be 1dbe d648 9c3e
00000390: 7362 343d 247c 1e3e 3f28 8b3d 8b7a ec3d
000003a0: b604 fabc 24da 053c be0d a4bd 5fc8 98bd
000003b0: 3aaa 333e 45a2 083e cbba f83d ac8d e93d
000003c0: 6b4f 0c3d f84f 41bd 54b9 c63b beba 1bc0
000003d0: e2a4 3d3d 7129 f13d 21b2 9d3d 7b26 0c3e
000003e0: 3f47 c73b bd99 433d 5ac6 c93b 2821 213e
000003f0: 7830 683e 0000 5b3e 138e 66be 17b4 89bc
-0.07488629 -0.09888561 -0.59190285 0.07735658 -0.42193335 0.072174825 -0.9276838 0.00097409956
-1.1271435 -0.007298555 -0.41874266 -0.036485318 -0.19038916 -0.01626487 -0.08342549 0.024469573
-0.04102036 0.05080977 -0.4794635 -0.038004324 0.117652416 0.04150256 0.0135642905 0.12335922
-0.0847693 0.11647149 -0.1283275 -0.088419735 0.4426163 0.016859602 0.13983572 0.11656679
-0.09081475 0.07526395 0.30476406 -0.14339778 1.0325013 -0.0888059 1.1222363 -0.095868565
1.2312552 -0.11351257 -0.16098621 -0.21419728 -0.016651096 0.41136578 -0.21766871 1.1175963
0.4513226 1.0490086 1.3088436 0.4139466 -0.45631015 0.5238553 0.39438307 0.3828514
0.7961137 0.48748666 1.1893449 0.40998676 -0.5379653 0.34711555 0.13455532 0.19814064
1.1708767 0.03410571 1.8716815 -0.1488054 -0.21586369 0.3306115 -0.23936167 0.12542512
0.2298708 -0.12790878 0.7550294 -0.18295996 0.16338488 0.2868581 -0.29418048 0.02749812
-0.06120217 -0.05810322 0.3973202 -0.26935735 0.079610765 -0.14204979 -0.18796068 0.97900796
-0.17521934 0.92406493 -0.15407409 0.23080406 -0.05041848 0.49798235 -0.5755135 0.05661467
-0.06035381 0.24742109 0.12784353 -0.009948954 0.2546041 -0.033948526 -0.2701445 -0.257327
-0.15460682 1.2423103 -0.0055222614 0.92075056 0.1485585 0.47815892 -0.106113486 -0.6359581
-0.15971743 1.1869552 0.03822325 1.0554737 0.22174796 0.535144 0.14422365 -0.48767945
-0.07075671 0.7069721 0.053728007 0.6730107 0.019875878 0.35778698 0.19296992 0.097150594
0.34971222 0.95782566 0.050858323 0.11924137 -0.51985407 0.039317735 -0.78567845 0.10049329
0.13563076 -0.068756826 0.20008436 0.027784377 0.31078038 0.089560516 0.34507138 0.12929642
-0.050234232 -0.053910397 0.08539646 0.0051659024 0.30214816 0.042200718 0.37446964 0.0885721
-0.78218067 -0.05556015 -0.2911905 0.00613226 -0.12936015 0.062915824 -0.08042057 0.21166481
-0.6927262 -0.14095627 -0.054709237 -0.34845486 0.4602789 -1.0372368 0.7957429 -1.8069689
0.13810253 0.10633013 0.29108664 1.2517414 0.15213649 0.6005677 0.021118512 0.40296033
-0.089696296 0.389999 0.16524176 0.16613689 0.10664629 0.17941472 -0.04176334 0.16089587
-0.074610226 0.15619929 0.15571284 0.18871622 0.10653919 0.115906246 -0.035179216 -0.038516108
-0.13327682 -0.13879833 0.03228496 0.18778598 0.049288124 0.09494842 -0.04624107 -0.24715944
-0.1656669 -1.2592235 -0.069068365 0.24194756 0.08661232 0.13418646 0.1319518 -0.13074824
0.0632655 -1.5046861 0.101558656 0.034270257 0.17796865 1.0317515 0.10360825 0.5203257
0.111420065 0.36135325 0.023661623 0.30435243 0.076861784 0.18728186 -0.037244596 0.1701308
-0.122612655 0.23399179 -0.15404809 0.3052432 0.0440392 0.15477043 0.06794786 0.11546811
-0.030519824 0.008169685 -0.080104336 -0.07460093 0.17545405 0.13343151 0.12145003 0.11403975
0.034255426 -0.047195405 0.0060645733 -2.4332728 0.046299823 0.117754824 0.07699991 0.13686554
0.0060814912 0.047754038 0.0061576786 0.15735304 0.2267474 0.21386719 -0.22515135 -0.016809506

sequential/dense_1/MatMul f4 [10, 20]
00000000: 2cb2 e03f f05a 19be b8c4 0bbf b1e9 7d3f
00000010: 791e b03d 6194 03bf 4ebb 48bf c013 f43d
00000020: 15f7 113e 4627 ba3f 3256 a03f 0357 073e
00000030: 1599 3abe 96cb 3b3f 6cc9 263e e38e 51bf
00000040: 6c0b 883f 611a 0c3e 605f 1e3f f24d 823f
00000050: 7b4a 66be ff3b bbbd a2ba 713f 47ec 8bbe
00000060: 96ec 38be bef2 bcbd 6a65 1c3f e45c 01be
00000070: 0758 533f fb21 07bd 8326 bc3c 7602 953f
00000080: dcc1 b3be d5ce 10be 0a25 6c3f 3130 693e
00000090: ce14 233f 13b8 383f 2b17 693e 5479 4fbe
000000a0: d257 2a3f 0ce8 ca3e c422 153f f49d 3b3f
000000b0: a58e d43f 5645 d93f e3b0 9e3e fff4 db3d
000000c0: e6b2 f43d f572 de3e 03bc db3e fb9c 113e
000000d0: b56e 653f 48a2 833f 0eb6 8b3e 7a35 0f3f
000000e0: ec42 57bf b2cd dc3d 27db 12be f1c5 263f
000000f0: 5e89 06be 4334 55be 3ac5 7a3d 224c 47be
00000100: 096f 1f3e 8cbe ad3f ae7d 353f 433d 173d
00000110: 61e3 173f 107f e1be e1f5 293d a6ec 413c
00000120: 885b bbbd 9e3d 2c3f 14eb 173e f405 0e3e
00000130: 7b3c 10bf 2b17 043f 7279 893e 63c1 c53e
00000140: eae6 023e 5197 ce3e 1478 e7bc 8c4f 553f
00000150: 37ae 093e 5f96 a1be 8bf9 ce3e c685 93be
00000160: 5498 cb3e f0c5 3c3e bc2f f23e 6fe6 253e
00000170: 2b48 8bbe 31bf d63e 8312 1a3f 34dd cd3e
00000180: a7ba 913f 6e5f b83e 5d69 703f 0b02 8b3e
00000190: 5088 083c 26ad 4c3f 7de4 603f c061 523d
000001a0: 22d8 03bf cd89 ca3e 9dd9 363f 11cb 853f
000001b0: e4e6 753e 8aeb 1c3e 0c4e d6be 7fef 133e
000001c0: f1a2 f03f 2089 9fbd 9c34 593e 15c2 903f
000001d0: 37c5 253f e089 623e 802c 903f 71e6 cd3e
000001e0: 42ce c4bd f990 acbf febc be3d b014 a83d
000001f0: d124 903e 272c ef3e 3d47 8a3e 060b 5f3e
00000200: 2054 ebbd c1c4 8dbe db05 8a3f b226 dfbd
00000210: b250 66be 5f06 c63e 52ff 2dbf 6953 133e
00000220: 1d67 b7bd 91ea 86bd 5312 793f 28c6 ad3f
00000230: fd0c 153f a219 4c3f 7fee c2be a2c0 b63f
00000240: 6231 9c3f ce2f cf3f 1372 093c 130b 873f
00000250: 693b e63d 15d8 193f 8ae5 48bd 0011 7e3f
00000260: 47d3 cabe ab3d 003f e1b6 873e cdf2 3abd
00000270: 946e 25be 8d86 093e 6d39 f8be 3eb3 37be
00000280: 34db 503e 8cef d13e e760 8bbf 939d de3d
00000290: be15 ffbe 9e6e e4bc abf3 41bf 676a 3a3f
000002a0: b6c0 903f e614 313d b1d8 413f 08df 893f
000002b0: 376e 2e3e 26c5 5f3d ab2c 8d3f fbcc 0abf
000002c0: 7ef5 0abf 91ba 7e3f a109 c1bd f441 b63e
000002d0: 2ee2 aebf 1dd3 abbc 943f 2cbf 0bf4 613f
000002e0: a3ee 0d3f f87b 4f3f f113 aabf 39c7 9b3f
000002f0: 6ce4 5c3e ce15 d5bf 291f 1d3f 7f02 5abd
00000300: 1fd6 783d 916d 4b3f d590 2b3c 13da aabf
00000310: 7cb6 a2be dcd4 373e ed49 843d 50c7 5f3f
1.7554374 -0.14976096 -0.54597044 0.9918471 0.08599562 -0.51398283 -0.78410804 0.119178295
0.1425441 1.4543235 1.2526305 0.13216786 -0.18222459 0.7335752 0.16287774 -0.8185865
1.0628486 0.13681938 0.6186428 1.0180037 -0.2248935 -0.09142303 0.94425404 -0.27328703
-0.18059 -0.09225987 0.61092246 -0.12633091 0.82556194 -0.03299139 0.022967583 1.1641376
-0.3510884 -0.141414 0.9224402 0.2277229 0.6370362 0.72155875 0.22762744 -0.20261127
0.66540253 0.39630163 0.58256173 0.7328789 1.6606032 1.6974285 0.3099433 0.10740089
0.11948185 0.4344708 0.4291688 0.1422004 0.8962205 1.0283899 0.27287334 0.55940974
-0.8408649 0.10781421 -0.14341412 0.65145785 -0.13138339 -0.20820718 0.061223246 -0.19462636
0.155697 1.3573775 0.70894897 0.036923658 0.5933133 -0.44042253 0.041494254 0.011836207
-0.091483176 0.6728152 0.14835769 0.13869458 -0.56342286 0.5159785 0.26850468 0.38624105
0.12783399 0.4034982 -0.0282555 0.83324504 0.13445364 -0.31560037 0.4042476 -0.28813
0.39764655 0.18434882 0.47302043 0.16201185 -0.27203497 0.41942742 0.60184497 0.40207827
1.1385087 0.36010307 0.9391077 0.27149996 0.008333281 0.79951704 0.87848645 0.051362753
-0.5150167 0.3955826 0.714258 1.0452596 0.24013859 0.15324226 -0.4185642 0.1444683
1.8799726 -0.077898264 0.21211475 1.1309229 0.6475405 0.22122908 1.126358 0.40214875
-0.09609653 -1.3481742 0.09313391 0.08207071 0.2815309 0.46713373 0.27007475 0.21781549
-0.11490655 -0.27689174 1.0783037 -0.108960524 -0.2249172 0.38676736 -0.6796771 0.14387287
-0.08955214 -0.06587709 0.97293586 1.3576097 0.58222944 0.7972661 -0.38072583 1.4277537
1.220257 1.6186464 0.008389014 1.0550255 0.112418 0.6009534 -0.04904703 0.9924469
-0.39614317 0.500941 0.26506713 -0.04564171 -0.16155463 0.13430233 -0.48481312 -0.17939469
0.2039612 0.41003072 -1.0888947 0.10869899 -0.49821275 -0.027884778 -0.7576243 0.7281861
1.1308811 0.04323282 0.7572127 1.0771189 0.17034231 0.054631375 1.1029257 -0.54219025
-0.5428084 0.9950343 -0.09425665 0.35597193 -1.3662775 -0.02097469 -0.6728451 0.88263005
0.55442256 0.81048536 -1.3287336 1.2170173 0.21571511 -1.6647279 0.6137567 -0.053225037
0.060751077 0.7946406 0.010471542 -1.3347801 -0.3177985 0.17952293 0.06459413 0.874135

sequential/dense_2/MatMul f4 [26, 10]
00000000: d7bf 2d3f b17f 06be a69b 83be e343 40bd
00000010: 0ab8 d93e 8b26 a8be e952 97be e8a8 adbe
00000020: 8c59 08be 4004 3fbe c1c6 0b3f 532d 8b3e
00000030: 4fbe c2bc b802 61be 28f5 7dbd df20 75bd
00000040: aa07 7f3e 54ca 76be 01e1 b7be 8ef9 11be
00000050: 37f5 6ebf b99f 07bd 4394 d1bf c0cb 02be
00000060: 23e9 24bf 86ab 5f3e afd8 cc3e f926 50bf
00000070: 8b96 29bd 58c8 313f 74a0 88bf cd7c 8e3e
00000080: 6638 83bf 600e 9c3c 8314 2c3e d83a 403f
00000090: 83d3 d4be 7925 e63c 7fcf a73d b9f6 ccbf
000000a0: 551b adbe 975e 86bd 72c7 3fbe 0e6d 0fbf
000000b0: af9c d1be 5bb8 c23e 0301 b2be 0051 b6bd
000000c0: ce71 ec3e 1784 b6be b9fc d83e cffd 14bf
000000d0: 5956 3dbe b157 d5be 3ddd b8bd d3ec bfbc
000000e0: c6b5 ab3e 465b 2cbf 2295 aebe 8e5d d83d
000000f0: 9bc7 5b3e 8f1d 26c0 0e92 fbbf d8c3 0fc0
00000100: 793f 30bf 5c8c f43e bd1f d93e 0d2c 64be
00000110: 35d8 cabe 5771 163e 6d41 1bbf 5d49 48bd
00000120: de09 a53b 66b8 fe3d 6e88 bcbe b058 3abf
00000130: 28bd 9a3a 827a 073f 92d3 6fbe b763 fc3e
00000140: c70f 9abe 8823 053e fd9c 5a3f 5164 7cbe
00000150: 4185 c6be 56e0 f7bd 70c4 debe 161d 313e
00000160: 69ba 183e c4b8 a53d 71c1 cdbd c234 9cbe
00000170: 6f3b 583e 8b24 e0bd 9848 0fbf 814f 71bf
00000180: 03cd 163e f53a b53e 2d01 d43e 7cce 5c3e
00000190: 7cda 7bbe 53f1 17bf 0b45 f23e def6 c83e
000001a0: 3a0b f8be a477 38bf a582 55bf 8afd 143f
000001b0: d487 903e 44ff 0dbe e8a6 09be cc97 d83e
000001c0: 6e09 8bbf 22be f4be aa8d 923e 4210 243f
000001d0: 82a9 e2be fa2e 9bbe 35b6 5fbd bfd2 3fbf
000001e0: 6ef9 a13e 3997 8ebe 38ac 04bd 4814 e6bd
000001f0: 9a7e 88bd e63f bcbf 292f d23d 3428 923e
00000200: 32d9 22bf 200b d9bd b12b e53e 491e 7cbf
00000210: c864 64bf 231f 2dbf 9359 87bd d63b ef3d
00000220: 575b 90bf 56f6 4fbe 9f28 553f 33ec 58be
00000230: 2437 33bd a48e 253e a776 523e 4e73 8dbe
00000240: d9bc 813e 3eb2 80bf 12da eabd 1443 8bbe
00000250: 74f7 6f3e 6475 25bd f538 563f 7c0f 5b3e
00000260: d35f 7bbe 5aaf d5be 7c9d f83d ae28 8fbf
00000270: d988 09bc 48e2 b13d 9511 b7bf 3ab8 ebbd
00000280: cd21 67bf 4bda 5cbf d5a9 8d3e 7902 823d
00000290: e4e9 adbf b208 88bb 7c4c 203f 9e68 aabe
000002a0: 5ad6 8abf 0b19 583f 9f05 b1bf bc98 fa3e
000002b0: ca33 52bf dc92 aabe 3d18 39bf a6eb c93e
000002c0: 5834 fe3e f78f 08bf 9f5f 90be a3d2 dc3e
000002d0: 2234 09bf fb22 e4bf 93f9 d2bf ee8c 6e3f
000002e0: 753b 0bbf b547 c6be 921c 473e 1060 35bf
000002f0: fe35 3c3f 40e3 0c3f a584 2a3e 1ad1 313e
00000300: 9a58 b6be 114b 28bf d2c7 3ebf 6732 eb3e
00000310: 08bb 103f dd08 d1be 6653 763e 551c 01bf
00000320: a7d4 013e fc7c 0ebf 5915 cfbe a212 3c3f
00000330: 0605 563e 8c2c 1ebf f765 de3e 92a9 59bf
00000340: 69d4 b2be c73e 6a3e 413e babe aa89 093f
00000350: ed32 76bd dae6 113e 4f74 0dbe d272 0f3f
00000360: 55ff 16bf d2eb ab3d 11db a2be ee12 adbf
00000370: cf3c 36bf 0375 d23e 83f1 703f 3d8e 063f
00000380: 3e7c 21be ff19 ac3d 208a 46bf 57d6 ee3d
00000390: 78bd b1be 355f 90bf fe77 1f3f 228a 21bf
000003a0: 7c26 febe 5ea4 06bf 3f77 a23d 4460 97be
000003b0: 9daa 803e 1dfb 2fbe fddd c0bd 7eeb 91be
000003c0: d782 3abf 3a3d fa3e 1415 1abe db9b 2d3e
000003d0: eeba 4c3f 0703 9b3e 4679 a3be ca24 7fbf
000003e0: 0916 87be e97e bbbf e08b c23e bd1b adbe
000003f0: d5dc cb3d 389f f33d d40a acbf 7d2c c2bd
0.6787085 -0.13134648 -0.25704688 -0.04693974 0.42523223 -0.32841906 -0.29555443 -0.33917928
-0.1331541 -0.18653965 0.5460015 0.27183017 -0.023772387 -0.21973693 -0.062001377 -0.0598458
0.24905267 -0.2410062 -0.35913852 -0.14255354 -0.9334292 -0.033111308 -1.6373371 -0.12773037
-0.6441824 0.21842775 0.40009066 -0.8130947 -0.041403335 0.69446325 -1.0673966 0.2782959
-1.0251586 0.019049823 0.168047 0.7508979 -0.4156762 0.02809404 0.081938736 -1.6012794
-0.33809915 -0.0656101 -0.18728426 -0.5602578 -0.40939853 0.38031277 -0.34766397 -0.08902168
0.46180576 -0.35647652 0.42380312 -0.5819978 -0.1848997 -0.41668466 -0.09026573 -0.023428356
0.3353712 -0.6732677 -0.34098154 0.10564719 0.21462862 -2.595554 -1.9653947 -2.2463284
-0.6884685 0.47763336 0.42407027 -0.22282429 -0.39618078 0.14691673 -0.60646707 -0.04889809
0.0050365767 0.12437515 -0.36822838 -0.72791576 0.001180564 0.5292131 -0.23420551 0.49294826
-0.30090162 0.13001835 0.85395795 -0.24647643 -0.3877354 -0.121033356 -0.43509245 0.17296252
0.1491486 0.08091882 -0.10046662 -0.30509 0.21116422 -0.1094447 -0.55970144 -0.9426194
0.14726643 0.35396543 0.41407147 0.21563143 -0.24595064 -0.59352607 0.473183 0.39250845
-0.48446065 -0.7205756 -0.8340247 0.5819937 0.2822863 -0.13866907 -0.13442576 0.42303312
-1.0862253 -0.4780131 0.28623706 0.6408731 -0.4426995 -0.30309278 -0.054617126 -0.7493095
0.31635612 -0.2784975 -0.032390803 -0.11234337 -0.06664772 -1.4707 0.10262901 0.28546298
-0.63612664 -0.10597825 0.44759896 -0.9848371 -0.8921628 -0.67625636 -0.06608882 0.11681335
-1.1277875 -0.20308813 0.8326511 -0.21183853 -0.043753758 0.16167694 0.20553075 -0.27627033
0.25339392 -1.0054395 -0.11467375 -0.27199614 0.2343424 -0.040395156 0.8368066 0.21392626
-0.24548273 -0.41735345 0.12139413 -1.118429 -0.008394443 0.08685738 -1.4302241 -0.11509748
-0.9028595 -0.8627059 0.27668634 0.06348128 -1.3587003 -0.004151427 0.62616706 -0.33282942
-1.0846665 0.8441321 -1.382984 0.48944652 -0.82110274 -0.3331517 -0.7230261 0.39437598
0.4964931 -0.5334467 -0.28197953 0.43129453 -0.53595173 -1.7823175 -1.6482414 0.9318379
-0.543876 -0.38726583 0.19444492 -0.70849705 0.73519886 0.55034256 0.16652162 0.17364922
-0.35614473 -0.6573954 -0.7452365 0.4593689 0.5653539 -0.40827075 0.24055251 -0.50433856
0.12678777 -0.5565946 -0.40445974 0.7346593 0.20900354 -0.61786723 0.43437168 -0.8502437
-0.3492768 0.2287551 -0.3637562 0.53725684 -0.06010716 0.14248219 -0.138139 0.56034577
-0.58983356 0.083945885 -0.3180776 -1.3521402 -0.71186537 0.41104898 0.9411852 0.5256079
-0.15770051 0.08403396 -0.7755451 0.11661976 -0.34714866 -1.1279055 0.6229247 -0.631014
-0.49638736 -0.52594554 0.07932901 -0.29565632 0.25130168 -0.17185636 -0.09417341 -0.2849998
-0.72855896 0.48874837 -0.15047103 0.16953985 0.7997273 0.30275747 -0.31928462 -0.9966551
-0.26384 -1.4648105 0.3799734 -0.33810225 0.0995423 0.11895603 -1.3440804 -0.09481142
