model/keypoint_classifier/keypoint_classifier.tflite (tflite, 6676 bytes, 6 tensors)

sequential/dense/BiasAdd/ReadVariableOp f4 [20]
0	0xbf292dea	-0.66085684
1	0xbee31669	-0.44353035
2	0xbf2ba6f3	-0.6705162
3	0xbe3a4f16	-0.18194231
4	0xbea3db0d	-0.3200306
5	0xbd23d7ee	-0.04000085
6	0x3e8fffb0	0.28124762
7	0x3db40188	0.087893546
8	0xbf3ee924	-0.74574494
9	0xbddd2b14	-0.10799232
10	0xbe99ffd7	-0.30078003
11	0x3ebe7567	0.37198946
12	0xbed80ee6	-0.42198867
13	0xbf132ec7	-0.5749325
14	0xbe908dd5	-0.2823321
15	0xbd5332ef	-0.051562246
16	0x3ec591a3	0.38587674
17	0xbf130991	-0.5743647
18	0x3e0b2263	0.13587336
19	0xbf1e5925	-0.61854774

sequential/dense_2/BiasAdd/ReadVariableOp f4 [7]
0	0xbf11bd7a	-0.56929743
1	0xbf050006	-0.5195316
2	0x3ee726b0	0.45146704
3	0x3e287dc5	0.16454227
4	0x3ee2f39f	0.44326493
5	0x3e24a71a	0.16079369
6	0x3e7bfe4c	0.24608725

sequential/dense_1/BiasAdd/ReadVariableOp f4 [10]
0	0xbd93bba5	-0.07213525
1	0x3e623439	0.22090234
2	0x3ee79400	0.45230103
3	0x3e4b0181	0.19824792
4	0xbe9e0899	-0.30865934
5	0x3f60300b	0.8757331
6	0x3f29527d	0.6614149
7	0x3e00f599	0.12593688
8	0x3ee94f51	0.45568326
9	0xbe919a7d	-0.28438178

sequential/dense/MatMul f4 [20, 42]
0	0x3e87f3aa	0.26553088
1	0xbe6a8ecc	-0.22906035
2	0xbed6b236	-0.4193284
3	0xbf14b989	-0.58095604
4	0xbef1a3fe	-0.4719543
5	0xbeb25ec2	-0.3483792
6	0xbf060c8f	-0.5236291
7	0xbe25b9a5	-0.16184099
8	0xbee0b274	-0.4388615
9	0x3c5666c1	0.013086022
10	0xbdaa3f93	-0.08312907
11	0xbce150b5	-0.027504304
12	0xbe4f45e4	-0.20241505
13	0x3d5a6415	0.053318102
14	0xbde1592d	-0.11003337
15	0x3e6d0661	0.23146965
16	0x3b805db0	0.0039174184
17	0x3e96c5b9	0.29447725
18	0xbd8e617c	-0.069521874
19	0xbdcd36de	-0.10020231
20	0xbdc8026b	-0.09766086
21	0x3d51b402	0.05119706
22	0xbd80e2f9	-0.062932916
23	0x3e9d06f8	0.3066938
24	0xbe49efd9	-0.19720401
25	0x3e4edc3d	0.20201202
26	0x3edfe614	0.43730223
27	0xbd846475	-0.06464473
28	0x3e67ee31	0.22649457
29	0xba2e65a0	-0.00066527165
30	0xbd4b37c2	-0.04961372
31	0xbd3ec984	-0.0465789
32	0x3e2fd1b6	0.17169842
33	0xbeaed05f	-0.3414335
34	0x3ef08ab3	0.4698082
35	0xbe5fc734	-0.21853334
36	0x3ee46c0d	0.44613686
37	0xbe2037d4	-0.15646297
38	0x3f032657	0.51230377
39	0xbe60dc93	-0.21959142
40	0x3f3ad989	0.7298818
41	0xbf04a4a8	-0.51813745
42	0xbe231787	-0.15926944
43	0x3c6458c0	0.013937175
44	0xbe95f08f	-0.29285094
45	0x3ecf109d	0.40442362
46	0xbe545cf8	-0.2073859
47	0x3e8737b9	0.264097
48	0x3ef31d5f	0.47483346
49	0x3e2688de	0.16263148
50	0x3f3263c5	0.69683486
51	0x3e582c89	0.21110739
52	0xbe061544	-0.1309405
53	0xb9ec4a00	-0.00045068562
54	0xbda1a350	-0.078924775
55	0xbe20e80e	-0.15713522
56	0xbe36cab7	-0.17850767
57	0xbd273bc3	-0.040828478
58	0xbe40534d	-0.18781777
59	0x3d334f4f	0.043776806
60	0xbd9e0d9f	-0.07717442
61	0xbe1986e1	-0.14992858
62	0xbdf7d4da	-0.12101145
63	0xbd40189d	-0.046898473
64	0xbeb9dd93	-0.3630186
65	0xbd5c7bd1	-0.053829018
66	0xbecabd64	-0.3959762
67	0x3c6c8a21	0.014437229
68	0x3df5fe07	0.120113425
69	0xbe767553	-0.24068193
70	0x3dfe6ba9	0.12422878
71	0x3c0a3617	0.008435748
72	0x3ec5f1a1	0.3866091
73	0xbd4fcf5d	-0.050734866
74	0x3ec3a46b	0.38211378
75	0xbdbb1be4	-0.09136179
76	0x3ef2fcef	0.47458598
77	0x3cf99908	0.030468479
78	0x3d22835b	0.03967605
79	0xbe20a002	-0.15686038
80	0x3e30e1af	0.17273591
81	0xbe5d80c7	-0.21631156
82	0x3f00c91b	0.5030686
83	0xbdc9a8b7	-0.09846633
84	0x3dee5ea8	0.11639148
85	0xbe2f8956	-0.17142233
86	0xbf34fd81	-0.70699316
87	0xbec83f14	-0.39110625
88	0xbf2af383	-0.6677782
89	0xbea36c18	-0.31918406
90	0xbf480908	-0.7813878
91	0xbda6e252	-0.08148636
92	0xbf1c2b7a	-0.6100384
93	0xbd50eb2c	-0.051005527
94	0x3d2510f2	0.040299363
95	0xbcc52b3a	-0.024068464
96	0xbba43b9e	-0.0050119897
97	0x3d61d366	0.055133246
98	0x3d427fd6	0.047485195
99	0x3e0fb6dc	0.14034599
100	0x3cbd7f31	0.023131939
101	0x3e200ec3	0.15630631
102	0xbddc3662	-0.1075256
103	0x3d08026f	0.033205446
104	0x3e19c5ce	0.15016863
105	0x3d934d26	0.07192449
106	0xbdf2048a	-0.11817272
107	0x3e19acd6	0.15007338
108	0x3d84704d	0.06466732
109	0x3d8a3ec1	0.067502506
110	0x3e1bc728	0.15212691
111	0x3dedd659	0.11613149
112	0x3d3b0125	0.04565539
113	0xbd72e11d	-0.059296716
114	0x3e130af5	0.14359649
115	0x3de02d18	0.10946101
116	0x3eb7d994	0.35908186
117	0xbf163a8f	-0.58683103
118	0x3e990807	0.29888937
119	0xbe1dc206	-0.15406045
120	0x3e5f5872	0.21811083
121	0x3d730300	0.059329033
122	0x3eed2abd	0.4632167
123	0xbdc4df05	-0.0961285
124	0x3efd8aa6	0.49519843
125	0xbe8adab9	-0.27119997
126	0xbe568415	-0.20948823
127	0xbe2b7c7c	-0.16746706
128	0xbacff05a	-0.0015864477
129	0xbec7d291	-0.39027837
130	0x3e3a0e8e	0.18169615
131	0xbe4f93fe	-0.20271298
132	0xbe9a2e4e	-0.30113453
133	0xbe864258	-0.2622249
134	0xbf95eed7	-1.1713513
135	0xbe021b87	-0.12705813
136	0x3dbd99b3	0.092578314
137	0x3e44190d	0.19150181
138	0x3d527d3f	0.051388975
139	0x3d738d48	0.05946091
140	0x3d03ee44	0.03220965
141	0x3d687749	0.056754384
142	0xbe12028d	-0.14258786
143	0xbb41bafc	-0.0029560914
144	0xbe99be4d	-0.30028
145	0x3dd3e3de	0.103461966
146	0x3e84a9b8	0.25910735
147	0x3dee944c	0.11649379
148	0x3e8ec564	0.27884972
149	0x3ce89af6	0.028394204
150	0x3e9f77c6	0.31146067
151	0xbf274b4b	-0.6534926
152	0xbe087a71	-0.13327958
153	0x3de3717b	0.11105629
154	0x3e06aa95	0.1315101
155	0x3db23053	0.08700623
156	0x3e01af9f	0.1266465
157	0x3e803c68	0.25046086
158	0x3e60ec58	0.21965158
159	0x3ded02a9	0.11572773
160	0xbe20e4f1	-0.15712334
161	0x3dda6553	0.10663857
162	0x3d2c7c7c	0.042110905
163	0x3df22b0f	0.11824619
164	0x3da9572f	0.08268582
165	0x3ca77c80	0.020445108
166	0x3e6df313	0.23237257
167	0x3d6cb592	0.057790346
168	0x3e7bf5a4	0.24605423
169	0x3d2b69d0	0.041848958
170	0xbde39b6a	-0.11113627
171	0x3ea625ef	0.32450816
172	0xbe3a93d6	-0.18220457
173	0x3ed7248f	0.4202008
174	0xbea70806	-0.3262331
175	0x3e7e1f57	0.24816643
176	0xbe54b706	-0.20772943
177	0x3ef06f39	0.46959856
178	0x3eda6373	0.42654
179	0xbf071245	-0.5276225
180	0x3dc39ee2	0.09551789
181	0xbe83a662	-0.25712878
182	0x3db555aa	0.0885423
183	0xbe085c17	-0.1331638
184	0x3d7d902f	0.061905082
185	0xbe0cc423	-0.13746695
186	0x3eaa9771	0.33318666
187	0xbebedbf7	-0.37277195
188	0xba6ae456	-0.00089604163
189	0x3e0dfa4c	0.13865012
190	0xbd924cb5	-0.07143537
191	0x3ec3c825	0.38238636
192	0xbd9783ac	-0.07398161
193	0x3e8f0c76	0.27939194
194	0x3d9224a5	0.07135896
195	0xbe95087f	-0.29108045
196	0x37e91dd8	2.7789662e-05
197	0xbe2b0338	-0.16700447
198	0xbca0daf6	-0.019635659
199	0xbe7884e5	-0.24269445
200	0x3e847498	0.25870204
201	0xbf30f69a	-0.69126284
202	0xbe475bd0	-0.19468617
203	0xbde6bf65	-0.11266974
204	0x3e009fbe	0.12560937
205	0x3c05843c	0.008149203
206	0xbe5aace5	-0.21355017
207	0xbe05560d	-0.13021107
208	0x3dcdc380	0.10047054
209	0xbf3c4ace	-0.7355164
210	0x3e90f5b8	0.2831247
211	0x3e9e7abe	0.3095302
212	0x3e6c9854	0.23104984
213	0xbe9ff64b	-0.31242594
214	0xbd569afd	-0.052393902
215	0xbe0fffde	-0.1406245
216	0x3c39c45d	0.011338321
217	0x3dc51062	0.096222654
218	0xbe531b9c	-0.20616001
219	0xbad9b985	-0.0016611075
220	0x3e86775c	0.2626294
221	0x3d089250	0.03334266
222	0x3e04b5f2	0.12960032
223	0xbd789567	-0.060689356
224	0xbed93b01	-0.4242783
225	0xbdee4dbc	-0.116359204
226	0xbe651b9b	-0.22373812
227	0xbd886ac3	-0.06660988
228	0x3e756064	0.23962551
229	0xbdadf50f	-0.08494007
230	0xbe617d10	-0.22020364
231	0xbd654e98	-0.055983156
232	0xbf097d7e	-0.5370711
233	0x3d9309d3	0.07179608
234	0xbe38e08d	-0.1805441
235	0x3da098d2	0.07841648
236	0x3da1a77b	0.078932725
237	0x3e82be5f	0.25535867
238	0xbe0f56c8	-0.13997948
239	0x3c60270b	0.013681184
240	0xbf1d8403	-0.6152956
241	0xbd33f15b	-0.043931346
242	0xbf366fa2	-0.7126409
243	0x3ebcbfb3	0.36865005
244	0x3e2c4dd1	0.1682656
245	0x3ed3208c	0.4123577
246	0xbe909ec3	-0.28246126
247	0x3dda26a9	0.10651905
248	0xbebbc010	-0.3666997
249	0x3e950318	0.29103923
250	0xbf1ac8b2	-0.60462487
251	0x3ee8abd5	0.45443597
252	0x3de239b4	0.11046162
253	0xbdc4f5ca	-0.09617193
254	0x3e814ad6	0.25252408
255	0xbf29421b	-0.66116494

sequential/dense_1/MatMul f4 [10, 20]
0	0xbf0c5f23	-0.5483267
1	0xbd832c4c	-0.06404933
2	0x3ee110da	0.4395817
3	0x3d2e2fbd	0.042525996
4	0x3de091b8	0.10965294
5	0x3f77aba6	0.9674629
6	0x3f21ccf4	0.6320336
7	0x3eb55633	0.35417327
8	0x3d30f3c4	0.043201223
9	0x3fa06ec2	1.2533801
10	0x3ec168a3	0.37775144
11	0x3f4337a3	0.7625677
12	0x3e0404e0	0.12892485
13	0x3d1e2e69	0.03861848
14	0x3eb6079a	0.35552675
15	0xbac5d256	-0.0015092592
16	0xbe1f0eb9	-0.1553296
17	0x3ca74bf7	0.020421965
18	0x3f8e42c3	1.1114124
19	0x3e77e6d7	0.24209152
20	0x3d2d53f0	0.042316377
21	0x3db58be3	0.08864572
22	0x3df8e853	0.12153687
23	0x3f019141	0.50612265
24	0x3ec8d3d2	0.39224106
25	0xbeea4a49	-0.457598
26	0xbef79575	-0.48356214
27	0xbd1f2f1c	-0.038863286
28	0x3f0299fa	0.510162
29	0xbe19f187	-0.15033542
30	0x3e5b0c6d	0.21391459
31	0xbded57e5	-0.1158903
32	0x3f14a236	0.58060014
33	0x3f5ad172	0.8547584
34	0xbea050a1	-0.31311515
35	0x3eb8ab5c	0.36068237
36	0xbd1f9c80	-0.03896761
37	0x3f90277f	1.1262053
38	0xbd1ebcb3	-0.038754176
39	0x3eecec5b	0.46274075
40	0x3e92d422	0.2867747
41	0xbf009308	-0.5022435
42	0xbe02403c	-0.12719816
43	0x3f485507	0.7825474
44	0xbddcfba2	-0.10790183
45	0xbd2f3c71	-0.04278225
46	0x3f2cb68f	0.6746606
47	0x3f07f667	0.53110355
48	0x3d80e1cf	0.062930696
49	0x3f0c31e6	0.5476364
50	0xbd00b0d7	-0.031418648
51	0xbe9cc63f	-0.3062
52	0x3ebaf808	0.36517358
53	0xbe9efccb	-0.3105224
54	0xbdc3a7f9	-0.095535226
55	0xbe816524	-0.25272477
56	0x3f8916c5	1.0710074
57	0xbd3cf2a4	-0.046129838
58	0x3edcdb4b	0.43136057
59	0x3d0f8fca	0.035049237
60	0xbeb733ac	-0.3578161
61	0xbe1545e7	-0.14577447
62	0xbe7e9940	-0.24863148
63	0x3e3e3f42	0.18578818
64	0xbeefdb01	-0.46846774
65	0x3ef71adf	0.4826269
66	0x3e9bb010	0.30407763
67	0x3eaab5a8	0.33341718
68	0xbf1b1563	-0.6057951
69	0xbe7571cc	-0.23969191
70	0xbe2a1cf5	-0.16612609
71	0x3dbdb683	0.09263327
72	0xbe2b6ac1	-0.16739942
73	0x3d28c2db	0.041201454
74	0x3ee425cf	0.44560096
75	0xbf34812d	-0.70509607
76	0x3f0ce645	0.55038863
77	0xbef6cbd9	-0.48202398
78	0x3eaf0430	0.34182882
79	0xbebae730	-0.36504507
80	0x3f63c016	0.88964975
81	0xbd02e3f4	-0.031955674
82	0x3f82b81b	1.0212435
83	0x3f066644	0.52499795
84	0x3f23fe56	0.6405996
85	0xbd7b035d	-0.061282504
86	0x3e058015	0.1303714
87	0x3e864da0	0.26231098
88	0x3f3f5909	0.7474523
89	0x3e9cae80	0.30601883
90	0x3f68ff26	0.91014326
91	0x3e0090a7	0.1255518
92	0x3f87c7c3	1.0607837
93	0x3e0983d8	0.134292
94	0xbd3b3d9b	-0.04571305
95	0xbea75fe1	-0.32690337
96	0xbf1d9823	-0.6156027
97	0xbdd3cfc7	-0.10342365
98	0x3e93b838	0.28851485
99	0x3f0a53ce	0.54034126
100	0xbeae0fa4	-0.33996308
101	0x3eec4cac	0.46152246
102	0xbf4e1a2d	-0.8050869
103	0xbf2cfd27	-0.6757378
104	0x3f1eafb3	0.61986846
105	0x3e6f6db1	0.23381688
106	0x3e993795	0.29925218
107	0xbdf1952b	-0.1179603
108	0xbd185830	-0.037193477
109	0xbdcc83b4	-0.09986058
110	0x3f4e8b23	0.80681056
111	0xbe02053f	-0.12697314
112	0xbecedaa1	-0.40401176
113	0x3e1f751b	0.15572016
114	0x3eab1a4a	0.33418494
115	0x3f984e5a	1.1898911
116	0x3f1b949b	0.6077363
117	0xbda2479d	-0.079238154
118	0x3ea3e1cf	0.32008216
119	0xbf286664	-0.65781236
120	0x3c7a7c2e	0.015288396
121	0xbef2f639	-0.47453478
122	0xbea128fb	-0.31476578
123	0xbf11a71f	-0.5689563
124	0xbeae86ec	-0.34087312
125	0xbebccdf8	-0.36875892
126	0x3f427a2b	0.75967664
127	0x3ed57caa	0.41696674
128	0xbf36e87a	-0.7144848
129	0xbb54cedc	-0.003247193
130	0xbea4c901	-0.32184604
131	0x3f473711	0.778184
132	0x3d12b26e	0.035814695
133	0x3e3bf178	0.18353832
134	0x3f179ee5	0.5922683
135	0x3ddbd175	0.1073331
136	0xbe578e2a	-0.21050325
137	0xbeb9a521	-0.36258796
138	0x3c83d57c	0.016093008
139	0xbe920a33	-0.28523406
140	0x3e1b11eb	0.15143554
141	0x3f0f6954	0.5602009
142	0x3d802710	0.062574506
143	0xbf1aef52	-0.60521424
144	0xbe80f081	-0.2518349
145	0x3f05d659	0.52280194
146	0xbef817eb	-0.48455748
147	0xbe67008b	-0.22558801
148	0x3eebe569	0.46073464
149	0xbd0804e8	-0.033207804
150	0xbe211a99	-0.15732802
151	0xbec8b52c	-0.39200723
152	0xbe40d834	-0.18832475
153	0xbc7002d6	-0.014649114
154	0x3e931e2d	0.2873396
155	0xbd8927db	-0.06697055
156	0x3ec7500b	0.38928255
157	0x3f09f21d	0.5388506
158	0xbefaa938	-0.4895723
159	0x3f0f4009	0.55957085
160	0xbebf3e5b	-0.3735226
161	0xbeb7a7ad	-0.35870114
162	0xbe84e94d	-0.25959244
163	0x3ef61dfe	0.48069757
164	0xbeac5cfc	-0.3366469
165	0xbf0f2b8f	-0.5592584
166	0xbe8f749d	-0.28018656
167	0xbef02c84	-0.46908963
168	0x3ef74ed3	0.48302326
169	0xbf19f07b	-0.6013257
170	0xbe87ce67	-0.2652466
171	0xbf051a36	-0.5199312
172	0x3f251e9a	0.6449982
173	0x3e54b912	0.20773724
174	0xbef2ea0b	-0.47444186
175	0x3e627abb	0.2211713
176	0x3f251ab9	0.644939
177	0x3e91394b	0.28364024
178	0xbf64a07a	-0.8930737
179	0xbf3c0b28	-0.73454523
180	0x3f4309f9	0.7618709
181	0x3f319707	0.69371074
182	0x3e889c10	0.26681566
183	0xbe297cef	-0.16551565
184	0x3edaf38f	0.42763945
185	0x3df0e7be	0.11762951
186	0x3e12dc94	0.14341956
187	0x3f28e9d3	0.6598179
188	0x3e707ba0	0.23484659
189	0x3e28e38b	0.16493051
190	0x3e3045c0	0.17214108
191	0x3d9b45a5	0.07581643
192	0x3ddf6c4b	0.10909327
193	0x3ea8bcc7	0.32956526
194	0x3f2d1918	0.67616415
195	0x3e5b6891	0.21426608
196	0xbf6116a1	-0.87925154
197	0x3f05ed68	0.5231538
198	0x3e4bedad	0.19914885
199	0x3ebc76a6	0.36809272

sequential/dense_2/MatMul f4 [7, 10]
0	0x3eb6a04e	0.35669178
1	0x3e6fc97e	0.23416707
2	0x3eabdca4	0.33566773
3	0xbf2aeb08	-0.6676488
4	0x3f38d34c	0.72197413
5	0xbea06b11	-0.31331685
6	0x3e2d73e1	0.16938736
7	0xbee4ce25	-0.44688526
8	0xbeac6414	-0.33670104
9	0xbdb7ba1c	-0.089710444
10	0x3ecbe97c	0.39826572
11	0x3e08a299	0.13343276
12	0xbf440e50	-0.7658434
13	0x3e823eac	0.2543844
14	0x3eb1b6ce	0.3470978
15	0xbe09afef	-0.1344602
16	0xbebf6dd6	-0.37388486
17	0x3e0f45c0	0.13991451
18	0xbe94a78e	-0.29034084
19	0x3f368961	0.71303374
20	0xbf6fbd03	-0.93647784
21	0x3f16e439	0.5894199
22	0xbc9af9af	-0.018917887
23	0x3c4319fb	0.01190805
24	0xbf4d584a	-0.80212843
25	0x3f6028cd	0.8756226
26	0xbf2a6603	-0.6656191
27	0x3cd82b39	0.026387798
28	0x3ece4c41	0.40292552
29	0xbf56428f	-0.8369531
30	0x3eea263b	0.45732293
31	0xbfa8b000	-1.3178711
32	0x3f87b3b1	1.0601712
33	0x3f46b212	0.77615464
34	0xbf7d46c3	-0.989361
35	0xbea6413c	-0.32471645
36	0x3f79d6eb	0.97593564
37	0x3eca8360	0.39553356
38	0xbea76f86	-0.32702273
39	0xbf8a3daa	-1.0800068
40	0x3ee0125e	0.43764013
41	0xbf32d59f	-0.6985721
42	0xbf329709	-0.6976171
43	0xbe5829aa	-0.21109644
44	0xbf035153	-0.51295966
45	0x3f9bc925	1.217076
46	0x3ef4f6d6	0.4784457
47	0xbef09975	-0.46992078
48	0xbf684a05	-0.90737945
49	0x3d802369	0.06256754
50	0xbf16b537	-0.5887026
51	0x3edc8d0a	0.43076354
52	0xbf30c37b	-0.6904828
53	0xbedb183a	-0.4279192
54	0xbe29dcaa	-0.16588083
55	0xbeb76fc4	-0.35827458
56	0xbcc1db61	-0.023664178
57	0x3f4787d0	0.7794161
58	0xbe880517	-0.26566383
59	0x3eb9bb45	0.36275688
60	0xbfa87ff4	-1.3164048
61	0x3f1963ca	0.5991789
62	0x3f02f5b4	0.51156163
63	0xbef773bc	-0.48330486
64	0xbe9656a3	-0.29362974
65	0x3eb13f59	0.34618643
66	0xbe4d5a8c	-0.20054072
67	0xbf2eb172	-0.6823951
68	0x3f8063ce	1.0030458
69	0xbf770550	-0.9649248
